mindspore/lite/test/ut/tools/converter/parser/tflite/test_data/batch_to_space_nd.tflite (tflite, 792 bytes, 1 tensors)

Const_1 f4 [8, 1, 3, 1]
0	0x00000000	0.0
1	0x3f800000	1.0
2	0x40400000	3.0
3	0x00000000	0.0
4	0x41100000	9.0
5	0x41300000	11.0
6	0x00000000	0.0
7	0x40000000	2.0
8	0x40800000	4.0
9	0x00000000	0.0
10	0x41200000	10.0
11	0x41400000	12.0
12	0x00000000	0.0
13	0x40a00000	5.0
14	0x40e00000	7.0
15	0x00000000	0.0
16	0x41500000	13.0
17	0x41700000	15.0
18	0x00000000	0.0
19	0x40c00000	6.0
20	0x41000000	8.0
21	0x00000000	0.0
22	0x41600000	14.0
23	0x41800000	16.0
