mindspore/lite/test/ut/src/runtime/kernel/arm/test_data/conv/convfp32.tflite (tflite, 4256 bytes, 2 tensors)

Conv2D f4 [32]
00000000: 0000 0000 0000 0000 0000 0000 0000 0000
00000010: 0000 0000 0000 0000 0000 0000 0000 0000
00000020: 0000 0000 0000 0000 0000 0000 0000 0000
00000030: 0000 0000 0000 0000 0000 0000 0000 0000
00000040: 0000 0000 0000 0000 0000 0000 0000 0000
00000050: 0000 0000 0000 0000 0000 0000 0000 0000
00000060: 0000 0000 0000 0000 0000 0000 0000 0000
00000070: 0000 0000 0000 0000 0000 0000 0000 0000
0.0 0.0 0.0 0.0 0.0 0.0 0.0 0.0
0.0 0.0 0.0 0.0 0.0 0.0 0.0 0.0
0.0 0.0 0.0 0.0 0.0 0.0 0.0 0.0
0.0 0.0 0.0 0.0 0.0 0.0 0.0 0.0

Conv2D1 f4 [32, 3, 3, 3]
00000000: 43b8 113f 787c 2b3f b594 083e 5a99 343f
00000010: 1919 133f 4d83 083f 6ebd 6b3e e4df 6e3f
00000020: b93b 0b3f 783c 6a3f c79a 5d3f b206 433f
00000030: 68e7 bb3e 439f fe3e 4a11 ad3e 3a39 4f3c
00000040: 231a 4b3d 5827 063f e1bf f53e f48c 903e
00000050: 58a7 3c3f 8515 493d 7f0f cb3d 590c 143f
00000060: 4d42 723f d2f1 ea3e 7b03 2b3e 12e5 e73e
00000070: f52a 5f3f 35b7 573f 3ed5 023f 75ae 4c3f
00000080: 1838 b23e a3a2 8c3e 7a81 093f 8afd 8e3e
00000090: fcaa 533f 777b 0d3e ef41 d33e 08c1 0c3f
000000a0: de21 903e 9ae9 7c3d 7dab 323f 6146 253e
000000b0: ddbb ca3c 7dcf 6c3e 2f38 413f 6a7a 973e
000000c0: ca2b 673f b202 7b3e 715e d33e d354 443f
000000d0: a3db e83e c048 3e3f a8ce 013e 301f 073f
000000e0: facb 523f 26a0 673f 5d8d 733f 084f 793f
000000f0: 1376 3f3f 0cfa 0b3f 4ec2 983e a017 b53e
00000100: ee0f 413f 7bd4 2c3e a1e3 a33e 52d3 023f
00000110: a850 823e 40b6 243f 43cb 1e3e 402b ce3e
00000120: 1cad 9f3e 0fac 5a3f 0266 d23e 7759 df3b
00000130: 334f 223f 690a 8d3c b9c6 753f f363 4b3f
00000140: 26cc b43d 77e4 923c ec89 2a3f 1b86 203f
00000150: 6e6d e33e 36dd 5a3e b8aa 163f 8faf 373f
00000160: 3307 743f 5cc5 573f c098 cf3e b352 fc3e
00000170: 2588 7d3f b449 1e3f fef5 643e 81f3 163f
00000180: d11d 133f 5808 693f 07e6 1a3f e280 6f3f
00000190: 2adc 223f 1a51 b33e 5005 0a3e 64bc f33d
000001a0: 198d 0a3f 6dfc 363f 1eaf 5a3f 1da3 663f
000001b0: a6c9 d53d 413d 9e3e c6f2 0b3e 1b68 d53e
000001c0: 9715 953e 3f5c 703f 75f4 3c3f 2bf7 fe3e
000001d0: 6ae4 d13e 2e2c 813e 08ec 4d3f def3 813d
000001e0: aa86 983e 4377 913e 0827 ae3e 6871 bb3e
000001f0: eeed a03e 176d 463f c997 1d3f ba16 633f
00000200: b0d2 083e 2b12 083f 38de 5f3f 2651 5c3f
00000210: d550 073e 47be 743e 07c8 6c3f 102a c43e
00000220: fa01 4b3f b4c8 253f 8bb1 3c3f 6811 663f
00000230: f13e 643f ec88 e33d fc69 133f 8cbf b33e
00000240: daf9 183d 84bc 273f 9642 513f b920 683f
00000250: 3d43 213f d59d 6e3e c105 263f 842e 963d
00000260: 7f5a 5d3f 0d2a 0d3f 2212 853d 7c89 5a3f
00000270: bb9a 623f 3cd9 2d3f 2ca0 8e3e 293d 1b3f
00000280: 8ef1 f23e 1a99 593f 9339 583f 7a8e 543f
00000290: f2a1 be3e 5c7c ed3e 321c 0c3f fa32 c13e
000002a0: f058 653f f8b9 fb3e 9793 0b3f 5e29 543e
000002b0: e2b4 df3e a7fb fd3b bfdc 823e ead7 f13e
000002c0: cb9e cb3e b55c 7e3f 6485 933e 0069 163f
000002d0: 1a64 773f 85fb 743f 48f0 0e3f 8acd 533e
000002e0: d574 953d 74d8 203f 685a 793d d2a9 923d
000002f0: c433 b13e 7283 1d3f 7e46 d13e a3a3 583f
00000300: ffc5 083f b087 4f3e 8963 343f 4b04 053f
00000310: 1fc2 7f3f 04a0 5f3e a903 203e cb0d dd3e
00000320: 4c2b 143f 1818 cf3e 6060 cf3e 9e9c 753f
00000330: 95d9 9a3e 8b38 0c3f 5e1a 463e 007c 473f
00000340: 69ad 7e3f 0cb9 5e3f 5a80 f13e c421 c43d
00000350: 82b6 333f 1cde 3e3f e472 053f 996d 7f3e
00000360: 46e1 373f 5b9c fb3e ff7e 323f 1432 b13e
00000370: 72c7 413f d6e6 713e cd65 2a3f 60b4 5b3e
00000380: 58ba 953e 4088 5f3f d2b7 353f c7f7 f73e
00000390: dde8 7f3f e6f9 3c3f 5b88 4f3d 8030 553f
000003a0: 25e1 d03e e39c 353f 3228 7c3f 08df 1e3f
000003b0: a840 a33e 5be6 323e 2708 ba3e a5a1 513d
000003c0: 7352 bb3e 5e53 033f 8134 383f 291e 1a3f
000003d0: 9d08 283f 8c67 3d3f 8b67 c53d b0b9 353e
000003e0: e570 c13e 3aab 643e 3ae0 f63e 9329 443f
000003f0: 6e54 2b3d b618 133d 50bf 563f 7903 4e3e
0.56921786 0.669868 0.13337977 0.70546496 0.5746017 0.5332535 0.2302148 0.9331038
0.54388005 0.9149852 0.86564296 0.7618209 0.36699986 0.49730882 0.33802253 0.012647921
0.049585473 0.52403784 0.47997954 0.2823254 0.73692846 0.04909279 0.09915065 0.5783134
0.94632417 0.4588762 0.16700546 0.45291954 0.8717492 0.84263927 0.5110663 0.799537
0.3480842 0.27467832 0.5371319 0.2792781 0.82682776 0.1381663 0.4126124 0.5498204
0.2815084 0.061746217 0.6979292 0.16140129 0.024747783 0.23126025 0.75476354 0.29585582
0.9030119 0.24512747 0.4128299 0.7669193 0.4548007 0.7432976 0.1267649 0.52781963
0.82342494 0.9047874 0.9513758 0.9738622 0.7478954 0.54678416 0.29835743 0.35369587
0.7541493 0.1687793 0.32009605 0.511037 0.2545216 0.6434059 0.15507226 0.40267372
0.3118676 0.8541879 0.4109345 0.006816085 0.634021 0.017216878 0.9600635 0.79449385
0.08828001 0.017931206 0.666167 0.6270463 0.44419426 0.21373448 0.58854246 0.71752256
0.95323485 0.8428552 0.40546227 0.49281844 0.99035865 0.6183121 0.22359464 0.5896531
0.5746737 0.91028357 0.60507244 0.93556035 0.63617194 0.35022813 0.13478589 0.11901167
0.5412155 0.7147892 0.8542346 0.9009264 0.10438852 0.30906108 0.1366683 0.4168099
0.29118034 0.93890756 0.7381051 0.4979795 0.4099458 0.2522902 0.8043828 0.06345342
0.2979024 0.28411302 0.34014153 0.3660996 0.31431526 0.7751021 0.6155973 0.88706553
0.13361621 0.5315272 0.87448454 0.8606132 0.13214429 0.2390071 0.9249272 0.3831334
0.7929989 0.64759374 0.7370841 0.8987031 0.8915854 0.111101 0.57583594 0.35107076
0.037347652 0.65522027 0.8174223 0.9067493 0.6299322 0.23302396 0.6485253 0.07333091
0.8646621 0.5514229 0.06497599 0.85366035 0.8851735 0.679096 0.27856576 0.606402
0.47449917 0.8499924 0.8446285 0.830299 0.3723293 0.4638394 0.5473052 0.37734205
0.8958883 0.4916532 0.5452208 0.20718905 0.4369269 0.0077509466 0.2555904 0.47235042
0.39769587 0.9936021 0.28812706 0.5875397 0.9663712 0.9569629 0.5583539 0.20683876
0.072976746 0.6283028 0.060877234 0.07161297 0.34609807 0.61528695 0.40874094 0.8462469
0.5342712 0.20266604 0.7046438 0.51959676 0.9990558 0.21838385 0.15626396 0.43174586
0.57878566 0.4044807 0.40503216 0.95942104 0.30244127 0.5477378 0.19345996 0.77923584
0.9948335 0.8700111 0.47168237 0.09576753 0.7020036 0.7455766 0.52128434 0.24944152
0.71828115 0.49142727 0.6972503 0.3460852 0.75694954 0.23623213 0.66561586 0.21455526
0.29243731 0.87317276 0.7098361 0.48431227 0.99964696 0.73818815 0.050667148 0.8327713
0.40796772 0.70942515 0.98498833 0.6205907 0.31885266 0.17470686 0.36334345 0.051179547
0.3658634 0.51299083 0.71955115 0.6020227 0.6563814 0.73986125 0.0963889 0.17746615
0.37781444 0.22330943 0.48217946 0.7662594 0.041828565 0.035912238 0.8388567 0.20118512
