mindspore/lite/test/ut/src/runtime/kernel/arm/test_data/conv/inception_v1_quant.tflite (tflite, 6136 bytes, 1 tensors)

InceptionV1/InceptionV1/Mixed_3b/Branch_2/Conv2d_0b_3x3/Conv2D_Fold;InceptionV1/InceptionV1/Mixed_3b/Branch_2/Conv2d_0b_3x3/weights_quant/FakeQuantWithMinMaxVars u1 [32, 3, 3, 16] scale=0.011369792 zero_point=77
000000 51 4c 4c 4f 4f 4e 4f 49 51 3c 50 4c 42 63 4d 4a
       0.045479167 -0.011369792 -0.011369792 0.022739584 0.022739584 0.011369792 0.022739584 -0.045479167 0.045479167 -0.19328646 0.034109376 -0.011369792 -0.12506771 0.25013542 0.0 -0.034109376
000010 4d 4f 49 4b 5d 4d 48 45 48 4c 52 46 45 49 4b 4c
       0.0 0.022739584 -0.045479167 -0.022739584 0.18191667 0.0 -0.056848958 -0.090958335 -0.056848958 -0.011369792 0.056848958 -0.07958854 -0.090958335 -0.045479167 -0.022739584 -0.011369792
000020 4c 44 4d 4b 58 52 4d 51 4a 65 43 57 54 38 4e 51
       -0.011369792 -0.10232813 0.0 -0.022739584 0.12506771 0.056848958 0.0 0.045479167 -0.034109376 0.272875 -0.113697916 0.113697916 0.07958854 -0.23876563 0.011369792 0.045479167
000030 52 61 55 4e 40 4d 51 54 50 3a 47 4c 35 71 4b 50
       0.056848958 0.22739583 0.090958335 0.011369792 -0.1478073 0.0 0.045479167 0.07958854 0.034109376 -0.21602604 -0.06821875 -0.011369792 -0.272875 0.40931252 -0.022739584 0.034109376
000040 4c 4f 48 4a 50 4f 52 4b 4a 47 58 43 48 45 4a 4d
       -0.011369792 0.022739584 -0.056848958 -0.034109376 0.034109376 0.022739584 0.056848958 -0.022739584 -0.034109376 -0.06821875 0.12506771 -0.113697916 -0.056848958 -0.090958335 -0.034109376 0.0
000050 4a 35 53 4f 55 55 50 57 4a 6e 50 61 68 29 4e 51
       -0.034109376 -0.272875 0.06821875 0.022739584 0.090958335 0.090958335 0.034109376 0.113697916 -0.034109376 0.37520313 0.034109376 0.22739583 0.30698436 -0.40931252 0.011369792 0.045479167
000060 52 4a 51 51 4c 4a 4f 4e 50 3f 4f 51 41 61 4d 49
       0.056848958 -0.034109376 0.045479167 0.045479167 -0.011369792 -0.034109376 0.022739584 0.011369792 0.034109376 -0.15917708 0.022739584 0.045479167 -0.1364375 0.22739583 0.0 -0.045479167
000070 4a 4d 48 4f 51 49 46 44 4b 4b 54 46 43 4c 50 49
       -0.034109376 0.0 -0.056848958 0.022739584 0.045479167 -0.045479167 -0.07958854 -0.10232813 -0.022739584 -0.022739584 0.07958854 -0.07958854 -0.113697916 -0.011369792 0.034109376 -0.045479167
000080 48 4c 4e 50 53 51 4d 50 4b 5f 52 56 4d 3f 51 53
       -0.056848958 -0.011369792 0.011369792 0.034109376 0.06821875 0.045479167 0.0 0.034109376 -0.022739584 0.20465626 0.056848958 0.10232813 0.0 -0.15917708 0.045479167 0.06821875
000090 52 4c 4e 4b 4c 53 49 5f 4a 4c 4f 47 4d 4f 4b 4e
       0.056848958 -0.011369792 0.011369792 -0.022739584 -0.011369792 0.06821875 -0.045479167 0.20465626 -0.034109376 -0.011369792 0.022739584 -0.06821875 0.0 0.022739584 -0.022739584 0.011369792
0000a0 44 53 4e 49 4e 6c 4c 6d 45 4e 4e 42 51 4b 4c 47
       -0.10232813 0.06821875 0.011369792 -0.045479167 0.011369792 0.35246354 -0.011369792 0.36383334 -0.090958335 0.011369792 0.011369792 -0.12506771 0.045479167 -0.022739584 -0.011369792 -0.06821875
0000b0 50 4c 48 4c 4c 53 55 54 4b 4c 4d 45 49 4f 4a 4b
       0.034109376 -0.011369792 -0.056848958 -0.011369792 -0.011369792 0.06821875 0.090958335 0.07958854 -0.022739584 -0.011369792 0.0 -0.090958335 -0.045479167 0.022739584 -0.034109376 -0.022739584
0000c0 48 49 4d 4c 4d 4a 4b 48 4b 4a 4c 44 45 4f 49 4b
       -0.056848958 -0.045479167 0.0 -0.011369792 0.0 -0.034109376 -0.022739584 -0.056848958 -0.022739584 -0.034109376 -0.011369792 -0.10232813 -0.090958335 0.022739584 -0.045479167 -0.022739584
0000d0 47 50 46 4e 4f 4f 47 4b 48 4d 4d 4e 4f 4c 46 4b
       -0.06821875 0.034109376 -0.07958854 0.011369792 0.022739584 0.022739584 -0.06821875 -0.022739584 -0.056848958 0.0 0.0 0.011369792 0.022739584 -0.011369792 -0.07958854 -0.022739584
0000e0 46 48 4a 4e 4d 49 4b 45 4b 49 4e 43 47 50 49 4b
       -0.07958854 -0.056848958 -0.034109376 0.011369792 0.0 -0.045479167 -0.022739584 -0.090958335 -0.022739584 -0.045479167 0.011369792 -0.113697916 -0.06821875 0.034109376 -0.045479167 -0.022739584
0000f0 46 4d 49 4f 50 51 54 40 56 4f 4b 5f 4a 52 4a 4e
       -0.07958854 0.0 -0.045479167 0.022739584 0.034109376 0.045479167 0.07958854 -0.1478073 0.10232813 0.022739584 -0.022739584 0.20465626 -0.034109376 0.056848958 -0.034109376 0.011369792
