mindspore/lite/test/ut/src/runtime/kernel/arm/test_data/conv/mv1_quant.tflite (tflite, 2152 bytes, 1 tensors)

MobilenetV1/MobilenetV1/Conv2d_0/Conv2D_Fold;MobilenetV1/MobilenetV1/Conv2d_0/weights_quant/FakeQuantWithMinMaxVars u1 [32, 3, 3, 3] scale=0.021826679 zero_point=151
000000 97 97 97 97 96 97 97 96 96 97 97 97 97 97 97 97
       0.0 0.0 0.0 0.0 -0.021826679 0.0 0.0 -0.021826679 -0.021826679 0.0 0.0 0.0 0.0 0.0 0.0 0.0
000010 96 96 97 97 97 97 97 96 97 97 97 86 84 8e 8e 8a
       -0.021826679 -0.021826679 0.0 0.0 0.0 0.0 0.0 -0.021826679 0.0 0.0 0.0 -0.37105355 -0.4147069 -0.19644012 -0.19644012 -0.28374684
000020 91 9c 9b 99 92 93 96 90 90 93 93 94 94 96 97 95
       -0.13096008 0.10913339 0.087306716 0.043653358 -0.10913339 -0.087306716 -0.021826679 -0.15278675 -0.15278675 -0.087306716 -0.087306716 -0.06548004 -0.06548004 -0.021826679 0.0 -0.043653358
000030 96 94 97 98 97 99 a5 8c 8a af 89 87 a1 95 91 b3
       -0.021826679 -0.06548004 0.0 0.021826679 0.0 0.043653358 0.3055735 -0.24009347 -0.28374684 0.5238403 -0.3055735 -0.34922686 0.21826679 -0.043653358 -0.13096008 0.611147
000040 8a 89 be 8a 88 a0 8f 8f a4 91 8e a5 8e 8f 94 97
       -0.28374684 -0.3055735 0.85124046 -0.28374684 -0.32740018 0.19644012 -0.17461343 -0.17461343 0.28374684 -0.13096008 -0.19644012 0.3055735 -0.19644012 -0.17461343 -0.06548004 0.0
000050 93 97 97 97 97 97 97 97 97 97 97 97 97 97 97 97
       -0.087306716 0.0 0.0 0.0 0.0 0.0 0.0 0.0 0.0 0.0 0.0 0.0 0.0 0.0 0.0 0.0
000060 97 97 97 97 97 97 97 97 97 97 97 97 9a 9d 98 8d
       0.0 0.0 0.0 0.0 0.0 0.0 0.0 0.0 0.0 0.0 0.0 0.0 0.06548004 0.13096008 0.021826679 -0.21826679
000070 8b 93 c2 d0 ac 95 97 94 48 24 74 ba c6 a8 a6 ac
       -0.26192015 -0.087306716 0.9385472 1.2441207 0.45836025 -0.043653358 0.0 -0.06548004 -1.7243077 -2.5100682 -0.7639338 0.7639338 1.0258539 0.37105355 0.32740018 0.45836025
000080 9e 6c 69 87 b4 b5 a4 92 93 97 a4 b0 9f 8c 82 92
       0.15278675 -0.9385472 -1.0040272 -0.34922686 0.6329737 0.65480036 0.28374684 -0.10913339 -0.087306716 0.0 0.28374684 0.545667 0.17461343 -0.24009347 -0.45836025 -0.10913339
000090 97 9b 99 b5 c6 a2 7a 74 8d 9a 95 99 ad ad 9e 84
       0.0 0.087306716 0.043653358 0.65480036 1.0258539 0.24009347 -0.6329737 -0.7639338 -0.21826679 0.06548004 -0.043653358 0.043653358 0.48018694 0.48018694 0.15278675 -0.4147069
0000a0 89 90 96 9b 98 80 8a 8a 87 8f 8d 97 9d 9d 82 8e
       -0.3055735 -0.15278675 -0.021826679 0.087306716 0.021826679 -0.5020136 -0.28374684 -0.28374684 -0.34922686 -0.17461343 -0.21826679 0.0 0.13096008 0.13096008 -0.45836025 -0.19644012
0000b0 8f 91 99 98 9a 9a 98 90 94 94 99 9a 94 96 95 a1
       -0.17461343 -0.13096008 0.043653358 0.021826679 0.06548004 0.06548004 0.021826679 -0.15278675 -0.06548004 -0.06548004 0.043653358 0.06548004 -0.06548004 -0.021826679 -0.043653358 0.21826679
0000c0 95 91 a2 97 92 9c 95 95 a2 97 93 a4 99 93 9b 94
       -0.043653358 -0.13096008 0.24009347 0.0 -0.10913339 0.10913339 -0.043653358 -0.043653358 0.24009347 0.0 -0.087306716 0.28374684 0.043653358 -0.087306716 0.087306716 -0.06548004
0000d0 95 9c 96 93 9e 9a 93 98 97 97 96 97 97 96 97 96
       -0.043653358 0.10913339 -0.021826679 -0.087306716 0.15278675 0.06548004 -0.087306716 0.021826679 0.0 0.0 -0.021826679 0.0 0.0 -0.021826679 0.0 -0.021826679
0000e0 96 97 97 96 97 97 96 97 97 96 98 97 97 98 97 96
       -0.021826679 0.0 0.0 -0.021826679 0.0 0.0 -0.021826679 0.0 0.0 -0.021826679 0.021826679 0.0 0.0 0.021826679 0.0 -0.021826679
0000f0 98 97 96 97 97 97 97 97 97 97 97 97 97 97 97 97
       0.021826679 0.0 -0.021826679 0.0 0.0 0.0 0.0 0.0 0.0 0.0 0.0 0.0 0.0 0.0 0.0 0.0
